Resources/PelletCatalysts_ANN.onnx (onnx, 14238 bytes, 28 tensors)

n1.weight f4 [19]
0	0x3f5e6279	0.8686901
1	0x3f562640	0.83652115
2	0x3f2a4775	0.66515285
3	0x3f5b121c	0.8557451
4	0x3f3b6753	0.73204535
5	0x3f25060d	0.6446236
6	0x3f87ac13	1.0599388
7	0x3f1e575d	0.61852056
8	0x3f4a9363	0.79131144
9	0x3f2ebeb4	0.6825974
10	0x3f3ff040	0.7497597
11	0x3f4f0b3e	0.8087653
12	0x3fb763d5	1.4327341
13	0x3f37bb1f	0.717699
14	0x3f6d05b9	0.9258686
15	0x3f726b0d	0.94694597
16	0x3face93b	1.3508676
17	0x3f34e199	0.70656735
18	0x3f94b25d	1.1616932

n1.bias f4 [19]
0	0x3e33fb11	0.17576243
1	0xbee3a20c	-0.4445957
2	0xbdf240f8	-0.11828798
3	0xbea3edf5	-0.32017484
4	0x3d3ec77f	0.046576973
5	0x3ef29c19	0.47384718
6	0xbe1e311c	-0.15448421
7	0xbd9b49d1	-0.07582439
8	0x3d7f8557	0.062383022
9	0xbeaaebf8	-0.33383155
10	0xbef75898	-0.4830978
11	0x3bfc5766	0.0077008484
12	0x3ed6dc37	0.41964886
13	0x3cc96c9a	0.024587918
14	0xbc37b444	-0.011212412
15	0x3e0f9587	0.14021884
16	0xbde18b4a	-0.110128954
17	0xbdf39008	-0.11892706
18	0x3dfc0e5b	0.123074256

n1.running_mean f4 [19]
0	0x400450d0	2.0674324
1	0x42387af4	46.12007
2	0x40c85991	6.2609334
3	0x3e021b47	0.12705718
4	0x4229eb19	42.479588
5	0x41165bde	9.3974285
6	0x408b1e08	4.347416
7	0x428d545e	70.66478
8	0x43dfd2ea	447.64777
9	0x43fcd8b7	505.69308
10	0x43259f87	165.62315
11	0x438d0326	282.0246
12	0x42682e75	58.04537
13	0x43aa08f7	340.07004
14	0x4189d48b	17.22878
15	0x3fee5851	1.8620702
16	0x4349174f	201.09105
17	0x3f02bb73	0.51067275
18	0x400ec173	2.2305572

n1.running_var f4 [19]
0	0x40aa747b	5.326719
1	0x4024cf7a	2.5751634
2	0x3e6d1744	0.23153406
3	0x3c5a3e57	0.013320527
4	0x3f1c66eb	0.6109454
5	0x3e9b59e3	0.30342016
6	0x40e63e9a	7.195142
7	0x41799bf8	15.600578
8	0x468f3be9	18333.955
9	0x46a54177	21152.732
10	0x45a977d4	5422.9785
11	0x45f255c5	7754.721
12	0x438c695a	280.82306
13	0x4626fba3	10686.909
14	0x3f88a511	1.0675374
15	0x3b924841	0.0044641797
16	0x46e386df	29123.436
17	0x3e896e3c	0.26841915
18	0x3fe21e11	1.7665426

d1.0.weight f4 [12, 19]
0	0x3e48ebd7	0.19621216
1	0x3df4ce9e	0.119534716
2	0x3e04d507	0.12971888
3	0x3ebefbf8	0.37301612
4	0xbe5f1fbd	-0.21789451
5	0xbe0a614d	-0.1351368
6	0x3f015fdb	0.5053689
7	0xbd8887f2	-0.066665545
8	0xbe505f26	-0.20348796
9	0x3dbe1a49	0.09282357
10	0x3e0595ee	0.13045475
11	0xbeb2b541	-0.3490391
12	0xbef330ad	-0.47498074
13	0xbed7ced0	-0.42149973
14	0xbe60a5bc	-0.21938223
15	0x3dd59326	0.10428457
16	0x3e92b452	0.28653198
17	0xbdcaaf0d	-0.098966695
18	0xbe12fdd4	-0.1435464
19	0xbea80930	-0.3281951
20	0x3dd51c4c	0.10405788
21	0x3e550489	0.20802511
22	0xbbd6dd5c	-0.00655715
23	0x3c8266b8	0.01591812
24	0xbe80ae21	-0.2513285
25	0x3d1e9527	0.03871646
26	0x3e735e1f	0.23766373
27	0xbe66ba86	-0.2253209
28	0xbc7a52eb	-0.015278558
29	0x3e5eb0d7	0.21747147
30	0xbc65a32c	-0.014015954
31	0x3e72add9	0.2369913
32	0xbc67a735	-0.014138986
33	0xbe087fa7	-0.13329946
34	0xbe0ad0ec	-0.1355626
35	0x3e8d285e	0.2756986
36	0x3dac9583	0.084269546
37	0xbd92441c	-0.07141897
38	0x3e8bc09f	0.27295396
39	0x3d7b14da	0.061299182
40	0x3e295dae	0.16539642
41	0x3ba3e55b	0.0050017065
42	0xbda3750d	-0.0798131
43	0xbde17dd0	-0.11010325
44	0xbd635916	-0.05550488
45	0xbe919458	-0.2843349
46	0x3d40eb0f	0.04709917
47	0xbcc01d0d	-0.023451352
48	0xbe2a0034	-0.1660164
49	0xbe3fef36	-0.18743595
50	0x3e383733	0.17989807
51	0x3c4d86ce	0.012544347
52	0x3dc2d572	0.09513368
53	0x3cf51224	0.029915877
54	0x40111668	2.2669926
55	0xbd684c26	-0.056713246
56	0xbe321cbe	-0.17393777
57	0xbb78db1e	-0.00379724
58	0xbee2a520	-0.44266605
59	0xbe1015fe	-0.1407089
60	0x3ddcc3a2	0.107795015
61	0xbd6b532d	-0.05745237
62	0x3dd1c9a1	0.10243536
63	0x3d2e3fff	0.0425415
64	0x3e0ead79	0.13933362
65	0xbda96c9b	-0.08272668
66	0xbde207ed	-0.11036668
67	0xbebfec4e	-0.37484974
68	0x3dcd6123	0.10028293
69	0x3c61f986	0.013792401
70	0xbe95f39e	-0.29287428
71	0xbee8e2a9	-0.45485428
72	0x3ee42e79	0.44566706
73	0xbd2aec1a	-0.04172907
74	0x3e54d6e8	0.20785105
75	0x3f00dfe0	0.50341606
76	0x3e5511d3	0.2080758
77	0xbf019fe9	-0.5063463
78	0x3d97a1a0	0.074038744
79	0xbe5f69ec	-0.2181775
80	0xbe840894	-0.25787795
81	0x3f230db0	0.6369276
82	0x3e09419d	0.13403936
83	0xbeaa558f	-0.332684
84	0xbe244ea5	-0.16045626
85	0xbead8127	-0.33887598
86	0xbf0a26c0	-0.5396538
87	0xbe343f4f	-0.17602275
88	0x3d988c9b	0.07448693
89	0xbe571fae	-0.21008179
90	0xbe844657	-0.25834915
91	0x3ee9cc31	0.45663598
92	0xbca10c00	-0.019659042
93	0xbe88b2ca	-0.26698905
94	0xbe88cca6	-0.26718634
95	0x3e0fc5d5	0.1404031
96	0x3e692e98	0.2277168
97	0x3e782bc0	0.2423544
98	0x3dadd1c9	0.08487279
99	0xbda0db85	-0.0785437
100	0x3ecf3b0f	0.40474746
101	0x3ec0a7fe	0.37628168
102	0xbe8d961d	-0.2765359
103	0xbe8bee94	-0.27330458
104	0xbec674aa	-0.38760883
105	0xbb93835a	-0.0045017423
106	0xbecf60c6	-0.4050352
107	0xbf1d9041	-0.6154824
108	0xbe95bdb3	-0.29246292
109	0x3db3191f	0.08745026
110	0xbe245835	-0.16049273
111	0x3d066e10	0.032819808
112	0xbdd1b50c	-0.1023961
113	0x3dfcd6b4	0.12345639
114	0x3f1acdb9	0.6047016
115	0x3dcf03fd	0.101081826
116	0x3e8c699c	0.27424324
117	0x3eed047c	0.46292484
118	0x3ee14ddd	0.44004717
119	0x3eaed1b4	0.34144366
120	0x3f023bda	0.50872576
121	0xbe999ec5	-0.30003944
122	0xbef09a58	-0.46992755
123	0xbe42f853	-0.1904004
124	0xbddc744d	-0.1076437
125	0xbf040845	-0.5157512
126	0xbf7de761	-0.9918118
127	0xbf082b65	-0.53191215
128	0x3e20be8d	0.1569769
129	0xbede6b5a	-0.43441278
130	0xbd2e9231	-0.042619888
131	0x3b80084d	0.0039072395
132	0xbe1475b2	-0.14498022
133	0xbdcced1d	-0.10006163
134	0x3dfb6c39	0.12276501
135	0x3d65ead7	0.056132164
136	0x3e063968	0.13107836
137	0xbea28bfd	-0.31747428
138	0xbd9fb349	-0.07797868
139	0x3e174107	0.147709
140	0x3e6ee672	0.23330095
141	0x3c867049	0.016410964
142	0x3e9a2cdd	0.30112353
143	0xbcbe125a	-0.02320211
144	0xbe4a0d58	-0.19731653
145	0xbd3e2c19	-0.046428774
146	0x3dd03f30	0.10168302
147	0xbe6d2e07	-0.2316209
148	0x3d8a1a8f	0.06743347
149	0xbfdf4305	-1.7442328
150	0x3d7519c2	0.059839018
151	0xbfa8be4b	-1.3183073
152	0xbc629f8f	-0.013831987
153	0x3e021c4a	0.12706104
154	0x3dfd63af	0.12372529
155	0xbe28cc44	-0.16484171
156	0x3dc31460	0.095253706
157	0xbe02a32e	-0.1275756
158	0xbd8c80a9	-0.068604775
159	0xbd8cf3c9	-0.06882436
160	0xbdd319d5	-0.103076614
161	0xbd3098cb	-0.043114465
162	0xbe8f8964	-0.28034508
163	0xbe42aee4	-0.19012028
164	0xbe9ce1c7	-0.30641004
165	0xbd10ae6e	-0.0353226
166	0xbe517c56	-0.20457587
167	0x3e2faec1	0.17156507
168	0xbf09cdff	-0.5382995
169	0xbf1bf404	-0.60919213
170	0x3d906830	0.07051122
171	0xbdcef147	-0.10104614
172	0x3e91c011	0.28466848
173	0xbdd17a9c	-0.10228464
174	0xbeae1646	-0.34001368
175	0x3e8d95a6	0.27653235
176	0xbe1d5e11	-0.15367915
177	0xbe6e4adf	-0.23270749
178	0x3eba67f8	0.36407447
179	0xbcea740e	-0.028619792
180	0x3e48c7c1	0.1960745
181	0xbd540944	-0.05176665
182	0x3e942bf6	0.2893979
183	0x3d818759	0.06324644
184	0x3e3bf40c	0.18354815
185	0x3dbbd2f5	0.09171096
186	0xbd97fd78	-0.07421392
187	0x3c07c865	0.008287524
188	0xbed59ee9	-0.417228
189	0x3dfd7fb0	0.1237787
190	0x3e713dd3	0.2355874
191	0xbe0fa6dc	-0.14028496
192	0x3e0a1037	0.13482748
193	0x3eb0cc44	0.34530842
194	0xbf1db65f	-0.616064
195	0xbe299a76	-0.16562828
196	0x3e48dfe0	0.19616652
197	0xbe15214a	-0.1456348
198	0xbecb22b8	-0.39674926
199	0xbd56c136	-0.052430354
200	0xbcee4705	-0.0290866
201	0xbd7969ac	-0.060891792
202	0x3da1360e	0.07871638
203	0xbe996081	-0.2995644
204	0xbeede6c5	-0.46465126
205	0x3ef4ab0f	0.47786757
206	0xbe11b2b1	-0.14228322
207	0x3de62d2c	0.112390846
208	0xbd3bfa29	-0.04589287
209	0x3e89b7fd	0.26898184
210	0xbd8e496c	-0.06947598
211	0xbdbc8101	-0.09204293
212	0x3b5c8aa4	0.0033651972
213	0x3cc6cef3	0.024268603
214	0x3e276ce3	0.1635013
215	0x3cd1e815	0.02562336
216	0xbe355c28	-0.17710936
217	0xbdbc77c2	-0.092025295
218	0x3dc6d30d	0.097082235
219	0xbed0b069	-0.4075959
220	0xbdaafa68	-0.083485425
221	0x3c9c9760	0.01911515
222	0xbd5edff5	-0.0544128
223	0xbd2869ff	-0.04111671
224	0xbe0e97d8	-0.13925111
225	0x3edbf569	0.4296067
226	0xbef76dc4	-0.48325932
227	0xbfc19f0e	-1.5126665

d1.0.bias f4 [12]
0	0xbf952621	-1.1652261
1	0xbf664e83	-0.8996355
2	0x3e464b70	0.19364715
3	0x3f3fc41e	0.74908626
4	0x3f51fd54	0.82027173
5	0x3f2b2442	0.668522
6	0x3f042229	0.51614624
7	0xbe8c8e6f	-0.27452418
8	0x3ed7e438	0.42166305
9	0x3e6955de	0.22786662
10	0xbf7344d5	-0.95026904
11	0x3f3920c6	0.72315633

d1.2.0.weight f4 [21, 12]
0	0xbefe781d	-0.49701014
1	0xbe349bef	-0.17637609
2	0xbf2b6946	-0.6695751
3	0x3e28a122	0.16467717
4	0x3ec621e2	0.38697726
5	0xbd993b3d	-0.07482002
6	0x3f0c1fca	0.54736006
7	0xbf7c6fef	-0.986083
8	0x3e20ea8c	0.15714473
9	0xbd0cc066	-0.034363173
10	0xbf170442	-0.5899087
11	0x3e6a9404	0.22908026
12	0x3f36d5e1	0.71420103
13	0x3d6b996f	0.057519373
14	0xbce29204	-0.027657516
15	0xbe99511c	-0.29944694
16	0xbea0ce35	-0.31407323
17	0x3dbfbcd4	0.09362188
18	0xbe9cfd8e	-0.30662197
19	0xbe9deb2a	-0.30843478
20	0xbe0a6d6d	-0.13518305
21	0x3e8aff8a	0.27148086
22	0x3ed95207	0.42445394
23	0x3ecdce39	0.40196398
24	0xbea150d5	-0.31506982
25	0xbee85d69	-0.45383766
26	0x3d53572c	0.051596805
27	0x3e69efb2	0.22845343
28	0x3ee85c6f	0.4538302
29	0x3e9d606d	0.3073763
30	0x3e098494	0.13429481
31	0xbe9b87f0	-0.3037715
32	0xbe4cf0b9	-0.20013703
33	0x3deb4329	0.11487419
34	0xbf081c70	-0.5316839
35	0xbe4441e7	-0.19165765
36	0x3e423b76	0.18967995
37	0xbedb6c06	-0.42855853
38	0xbd73e85c	-0.059547767
39	0x3f0d3822	0.55163777
40	0x3dd4b6fe	0.103864655
41	0xbe7b94a4	-0.2456842
42	0xbe126c64	-0.1429916
43	0x3eea3f11	0.4575124
44	0xbe45b4fa	-0.19307318
45	0xbcef0741	-0.029178264
46	0xbeb45b6b	-0.35225996
47	0xbf799699	-0.9749542
48	0x3e7e9ca0	0.24864435
49	0x3e8ac7fc	0.271057
50	0xbec19ee0	-0.37816525
51	0x3d4d1c9f	0.050076123
52	0xbdaf699f	-0.085650675
53	0xbe64989c	-0.22323841
54	0xbe8a81e9	-0.2705224
55	0x3db4b559	0.08823652
56	0x3e10f1bb	0.14154713
57	0xbe47df10	-0.19518685
58	0x3eacb6dc	0.3373326
59	0xbe0594e0	-0.13045073
60	0x3e94cac4	0.29060948
61	0x3e9d3af3	0.30709037
62	0x3cbcc4a7	0.02304299
63	0x3e560ef5	0.20904143
64	0x3d474a86	0.048655055
65	0xbecf9bec	-0.40548646
66	0xbe77042b	-0.24122684
67	0x3e9e82e2	0.3095923
68	0x3df8bd0b	0.12145432
69	0xbd7c538c	-0.061603114
70	0x3dc0bce2	0.094110265
71	0xbe4dd6e9	-0.20101513
72	0xbee2c9ab	-0.44294485
73	0xbed8c3a4	-0.42336762
74	0x3e492ad8	0.1964525
75	0x3e570a2f	0.20999978
76	0xbb828b0a	-0.00398386
77	0x3e8d2b0d	0.27571908
78	0x3ee393ab	0.444486
79	0xbda73687	-0.08164697
80	0x3ddc6a87	0.10762506
81	0x3e2611b3	0.16217689
82	0xbf31ffec	-0.6953113
83	0x3e103db9	0.14086045
84	0xbe7a9ceb	-0.24473922
85	0xbdfffba8	-0.124991715
86	0x3e6b80f8	0.22998416
87	0x3e20f6ee	0.15719196
88	0x3eb213b2	0.3478065
89	0x3da47232	0.080295935
90	0x3d058bcc	0.032604024
91	0xbea4b238	-0.3216722
92	0x3ec29f4c	0.3801216
93	0x3e80b67d	0.25139228
94	0xbf1fdfaa	-0.6245066
95	0x3e9e2ff2	0.30895954
96	0x3b9eb090	0.0048428252
97	0xbe0211ca	-0.12702098
98	0x3e7b7fb4	0.24560434
99	0x3f6c4751	0.9229632
100	0xbe5180eb	-0.20459335
101	0x3e9e7ed3	0.30956134
102	0x3ef2beb9	0.47411135
103	0x3f817c55	1.0116068
104	0xbe368929	-0.1782576
105	0x3b5eea3e	0.003401413
106	0x3d99f4ff	0.075174324
107	0xbff16a80	-1.8860626
108	0xbf300d19	-0.68769985
109	0xbe97ed84	-0.29673398
110	0xbdc0e7d7	-0.0941922
111	0x3ee05d1c	0.43821037
112	0x3e0daf33	0.13836364
113	0x3e95e6eb	0.2927774
114	0x3ea3b7a3	0.3197604
115	0x3e05a2b5	0.13050349
116	0xbd0215a9	-0.031758938
117	0x3e64776b	0.2231118
118	0xbf1eca88	-0.6202779
119	0x3e0e9e37	0.13927542
120	0xbf5d8069	-0.86524063
121	0xbf15a4e5	-0.58454734
122	0xbf986a2a	-1.1907399
123	0x3ed764ea	0.4206918
124	0x3eaa442a	0.3325513
125	0x3ecefcf5	0.40427366
126	0x3f0e5b33	0.5560791
127	0xbf294de8	-0.661345
128	0xbd3a7327	-0.045519974
129	0xbe89d55e	-0.269206
130	0xbf26ebf8	-0.6520381
131	0x3e5aa2aa	0.21351114
132	0xbf79c900	-0.97572327
133	0xbe94ba2e	-0.29048294
134	0xbf96d511	-1.1783773
135	0xbd570ee0	-0.05250442
136	0x3e7fa1ac	0.24964017
137	0x3e9778db	0.29584393
138	0x3ed29281	0.411274
139	0x3e95757c	0.29191196
140	0x3ea92610	0.33036852
141	0xbe56008c	-0.20898646
142	0xbe8d70d3	-0.2762514
143	0x3e9ac87e	0.30231088
144	0x3e035501	0.12825395
145	0xbe8af8ad	-0.2714285
146	0x3f10c3fe	0.5654906
147	0x3e0f4dad	0.13994475
148	0xbc19b546	-0.009381598
149	0x3e77cf38	0.24200141
150	0xbd8e950e	-0.06962024
151	0xbec10e56	-0.3770625
152	0xbed6cc0f	-0.4195256
153	0xbe8593f5	-0.26089445
154	0xbed47706	-0.41497058
155	0xbc49cc7e	-0.012316821
156	0xbf033256	-0.5124868
157	0xbeba5fe9	-0.364013
158	0xbf6ffced	-0.9374531
159	0x3f188bc1	0.5958825
160	0x3e3d5c9a	0.18492356
161	0xbd9b315b	-0.07577773
162	0xbd9479d2	-0.07249798
163	0x3ed7accb	0.42124018
164	0x3d91fb72	0.071280375
165	0xbea29a44	-0.3175832
166	0xbd225e38	-0.039640635
167	0x3e5212a3	0.20514922
168	0x3f16a4ab	0.58845013
169	0x3e51e6f1	0.20498253
170	0x3d90f8c9	0.07078702
171	0xbe823cb4	-0.25436938
172	0x3da9f103	0.082979225
173	0xbdaf0eda	-0.085477546
174	0xbeffde50	-0.49974298
175	0x3da822f6	0.08209793
176	0xbe58de1b	-0.21178477
177	0xbe0728c9	-0.13199152
178	0x3ea873ea	0.32900935
179	0xbb40fcf0	-0.0029447637
180	0x3f9fa678	1.2472677
181	0xbe0e3c32	-0.1389015
182	0x3f183245	0.59451705
183	0xbeb69db7	-0.35667202
184	0x3ef4e731	0.47832635
185	0xbd799645	-0.060934324
186	0xbd83c1b4	-0.0643343
187	0xbf964eef	-1.1742839
188	0xbdd5d067	-0.1044014
189	0x3c63c96d	0.013903004
190	0x3de4a429	0.111641236
191	0x3fb21863	1.3913692
192	0x3f36bc3b	0.71380967
193	0x3e5a0d16	0.21294054
194	0xbe0491c0	-0.12946224
195	0xbde4cdf1	-0.11172093
196	0xbdb15424	-0.08658627
197	0xbee8243d	-0.45340148
198	0xbe471cef	-0.19444631
199	0x3d47e040	0.048797846
200	0xbebba1b6	-0.36646813
201	0xbe995b39	-0.2995241
202	0x3e8c4568	0.27396703
203	0x3ddee968	0.108843625
204	0xbf472467	-0.7778992
205	0xbd7e52da	-0.062090732
206	0xbe23c619	-0.15993537
207	0x3ea42318	0.32058024
208	0x3df8992f	0.121385925
209	0xbe3f4ba6	-0.18681201
210	0x3ecaa69c	0.39580238
211	0x3e2059e3	0.15659289
212	0x3e88579f	0.2662935
213	0x3e3ab4a7	0.18232976
214	0xbf12faf0	-0.5741415
215	0x3e7857bd	0.2425222
216	0x3f11b079	0.569099
217	0x3e440bf6	0.19145188
218	0xbdc364bb	-0.09540697
219	0xbc637010	-0.013881698
220	0xbeb64e23	-0.3560649
221	0xbe9eb78b	-0.30999407
222	0xbe62c9e2	-0.22147325
223	0x3b8b1dc3	0.004245491
224	0x3d1067a6	0.035255097
225	0x3dd2a803	0.10285952
226	0x3ee77514	0.4520651
227	0xbe706cb7	-0.23478971
228	0xbf1ac9cf	-0.60464185
229	0xbef4bc44	-0.47799885
230	0x3e28f831	0.16500928
231	0x3ebd2a70	0.3694644
232	0x3e980255	0.2968928
233	0x3db5afa5	0.08871392
234	0x3e94f15e	0.290904
235	0xbe80a7bd	-0.25127974
236	0xbe676f2a	-0.22601
237	0x3e3f014d	0.1865284
238	0xbf156195	-0.58352023
239	0x3e8cf3ca	0.27529746
240	0xbf8fac6a	-1.1224492
241	0xbe85bf2b	-0.26122412
242	0xbf8b594b	-1.0886625
243	0x3e349840	0.17636204
244	0x3badd26f	0.0053046267
245	0x3ee6f0d8	0.45105624
246	0x3eed3526	0.46329612
247	0x3e276a39	0.16349114
248	0x3dda2734	0.10652009
249	0xbe12a836	-0.1432198
250	0xbf26910f	-0.6506509
251	0x3d2663ca	0.04062251

d1.2.0.bias f4 [21]
0	0x3f6f7df9	0.93551594
1	0xbf799aa4	-0.9750159
2	0x3f9f2506	1.2433174
3	0x3f21c0ee	0.6318501
4	0xbf9026ce	-1.1261842
5	0xbf833215	-1.0249659
6	0x3fa1b691	1.263384
7	0x3f9f9ad2	1.2469122
8	0x3eac57b6	0.33660668
9	0x3f984326	1.1895492
10	0x3f3de431	0.7417632
11	0x3f34a505	0.705643
12	0x3f834c80	1.0257721
13	0x3ee91315	0.4552237
14	0xbf115717	-0.56773514
15	0xbebe37e1	-0.37152007
16	0xbf5ff02e	-0.8747586
17	0x3f7ba91c	0.98304915
18	0xbf58bea1	-0.84665877
19	0x3f932431	1.149542
20	0x3ec325b1	0.38114694

d1.3.0.weight f4 [24, 21]
0	0xbebea4c1	-0.37235072
1	0x3ee94953	0.45563754
2	0xbf11f3f2	-0.57012856
3	0xbf0062e7	-0.50150913
4	0x3f19f502	0.6013948
5	0x3f36c912	0.7140056
6	0xbf141c90	-0.5785608
7	0xbf076c59	-0.528997
8	0xbf19fbb9	-0.60149723
9	0xbecaf20b	-0.3963779
10	0xbea47630	-0.3212142
11	0xbeb10793	-0.3457609
12	0xbe408721	-0.18801548
13	0x3de91143	0.113802455
14	0x3e22d385	0.15901001
15	0xbd568fcd	-0.052383233
16	0x3edde376	0.433376
17	0xbe344af0	-0.17606711
18	0x3f2fb4fb	0.6863553
19	0xbf410c21	-0.7540913
20	0xbeb2173e	-0.34783357
21	0x3f1499ad	0.5804699
22	0xbe95c992	-0.29255348
23	0x3ec6a412	0.3879705
24	0xbeb0f699	-0.3456314
25	0xbec28b26	-0.37996787
26	0xbe83ad02	-0.25717932
27	0x3e99c7de	0.300353
28	0x3ee9059c	0.45512092
29	0xbedc975d	-0.4308423
30	0x3e8a6125	0.2702724
31	0x3f34a0ce	0.7055787
32	0x3f2866aa	0.6578165
33	0x3e1bcc2a	0.15214601
34	0x3e8c84e0	0.27445126
35	0xbe1dd8d7	-0.15414749
36	0x3f21bbe2	0.6317731
37	0xbed9a3db	-0.42507824
38	0x3e48fda3	0.19628005
39	0xbd292d75	-0.041303117
40	0x3e9e545c	0.30923736
41	0x3f0d0e3b	0.5509984
42	0xbee11d31	-0.43967584
43	0x3e71c486	0.23610124
44	0xbef7dc62	-0.48410326
45	0xbe8d3261	-0.275775
46	0x3ef45f4d	0.4772896
47	0x3ec1b3ac	0.3783239
48	0xbf097899	-0.5369964
49	0xbf07a501	-0.5298615
50	0xbe4b242f	-0.19838022
51	0xbf0ace79	-0.542213
52	0xbdd11860	-0.10209727
53	0xbebebfbf	-0.37255666
54	0xbe59c808	-0.21267712
55	0xbdc88b8a	-0.0979224
56	0x3eac17dc	0.33611953
57	0x3defef14	0.117155224
58	0x3f0bba85	0.5458148
59	0xbeea8f11	-0.45812276
60	0x3e7c3674	0.24630147
61	0xbeefb896	-0.46820515
62	0xbe3ef5a5	-0.18648393
63	0x3dcc76e0	0.09983611
64	0xbebb0aab	-0.36531577
65	0x3e994321	0.29934028
66	0x3ed7e6bc	0.42168224
67	0xbdd4bd7d	-0.103877045
68	0xbd7188b7	-0.058968272
69	0xbd8bfe75	-0.06835643
70	0x3e3e7d7f	0.1860256
71	0xbe50d7d7	-0.20394836
72	0x3d00c05d	0.031433452
73	0x3e477050	0.19476438
74	0x3e30bb6b	0.17258994
75	0x3ed04583	0.40678033
76	0x3e92260a	0.28544647
77	0x3d926813	0.07148757
78	0xbdd5a81a	-0.104324535
79	0xbe4c7f1b	-0.19970362
80	0x3e9b0c48	0.30282807
81	0x3bbac7c2	0.0057000825
82	0x3e912016	0.28344792
83	0xbdc177fb	-0.094467126
84	0x3f46ca5f	0.77652544
85	0x3dae8e23	0.08523204
86	0x3f19a026	0.6000999
87	0xbf02dd5c	-0.5111902
88	0xbeb57d63	-0.35447225
89	0xbf0992be	-0.53739536
90	0x3f01631d	0.5054186
91	0x3e9113e9	0.28335503
92	0xbf82c4f6	-1.0216358
93	0x3ea02279	0.312763
94	0x3eb156f3	0.3463665
95	0x3d3de5c1	0.04636169
96	0x3edf59f7	0.43623325
97	0xbe1cebc1	-0.15324308
98	0xbe34bc4f	-0.17649959
99	0x3f4fa0b3	0.8110458
100	0xbe7bad15	-0.24577744
101	0x3e52ddcf	0.20592426
102	0xbd899794	-0.06718364
103	0x3f008d34	0.5021546
104	0x3dd71663	0.10502317
105	0xbe72e933	-0.23721771
106	0x3ebada77	0.364948
107	0xbf1a1295	-0.60184604
108	0xbe1defea	-0.15423551
109	0x3f0361d9	0.5132118
110	0x3eef91ce	0.46790928
111	0xbefa455a	-0.48881036
112	0xbf1f5c97	-0.62250656
113	0xbe36bdb0	-0.17845798
114	0xbedebf9e	-0.43505567
115	0xbef52527	-0.47879907
116	0xbea52923	-0.32257947
117	0xbe04689a	-0.12930527
118	0xbdfd4a19	-0.12367649
119	0x3ebf4eeb	0.37364897
120	0xbd5ae28a	-0.0534387
121	0x3f03468c	0.5127952
122	0xbedf3915	-0.43598238
123	0x3e99c297	0.30031273
124	0xbf33c64f	-0.7022447
125	0xbefc4e8b	-0.49278674
126	0x3dbb36ff	0.09141349
127	0xbed923d4	-0.42410147
128	0x3ecb4cec	0.39707124
129	0x3eeaf188	0.458874
130	0xbe87b06b	-0.26501784
131	0xbe68e038	-0.22741783
132	0x3f057ba8	0.5214181
133	0x3de75b97	0.11296766
134	0x3f081431	0.5315581
135	0x3e0a6dc2	0.13518432
136	0x3d04f6fc	0.032462105
137	0x3e9789bf	0.2959728
138	0x3eb3a81e	0.350892
139	0x3e633ac8	0.22190392
140	0xbe4a8534	-0.19777375
141	0xbed75045	-0.42053428
142	0xbeb7e44d	-0.35916367
143	0x3e5dbea3	0.21654753
144	0x3bbc1c3c	0.0057406705
145	0x3e2627a2	0.16226056
146	0x3e8113b3	0.25210342
147	0xbef5fb4e	-0.48043293
148	0x3e8fa31d	0.28054133
149	0xbef7aab8	-0.48372436
150	0xbf0a39be	-0.5399436
151	0x3f175c36	0.5912508
152	0x3f5f5f4d	0.8725479
153	0xbf139d48	-0.5766187
154	0xbee092b9	-0.4386194
155	0xbee1d729	-0.44109467
156	0xbea46f8f	-0.32116362
157	0xbef8d0a5	-0.48596683
158	0xbeb55dc2	-0.35423094
159	0xbe523854	-0.205293
160	0xbe283f17	-0.16430317
161	0x3eea53cd	0.4576706
162	0x3dcce23c	0.10004088
163	0x3eef1914	0.4669882
164	0xbeea60a6	-0.45776862
165	0x3f0e44a8	0.5557351
166	0xbf2ccbf6	-0.6749872
167	0xbd6fab0d	-0.058512736
168	0xbf021c98	-0.5082488
169	0x3ea7f6f4	0.32805598
170	0xbf196670	-0.5992193
171	0xbe952650	-0.29130793
172	0x3f313152	0.6921588
173	0x3f1e6064	0.6186583
174	0xbf2eca32	-0.68277276
175	0xbee90ad5	-0.45516077
176	0xbeca530e	-0.3951649
177	0xbeb71581	-0.35758594
178	0xbebfc9b9	-0.3745859
179	0xbe194dd1	-0.14971091
180	0xbca11b32	-0.019666288
181	0xbdd21f18	-0.10259837
182	0x3dd5418c	0.10412893
183	0x3d8aeed9	0.06783838
184	0x3ea31f88	0.31859994
185	0xbeb66cd7	-0.35629913
186	0x3edb5076	0.42834824
187	0xbf2ee06b	-0.68311185
188	0xbe1d0298	-0.1533302
189	0xbecb18d6	-0.39667386
190	0x3edbf774	0.4296223
191	0xbf42ad21	-0.76045424
192	0xbec165f2	-0.3777309
193	0x3f1a0e46	0.6017803
194	0x3f4a6b31	0.7906981
195	0xbf25ac93	-0.6471645
196	0xbeea4e89	-0.45763043
197	0xbf126ef8	-0.57200575
198	0xbf10ce6c	-0.56564975
199	0xbe8b558c	-0.27213705
200	0xbec7b5c9	-0.3900588
201	0xbc93f2f6	-0.018060189
202	0xbc939943	-0.018017417
203	0x3ea5d9b5	0.3239266
204	0xbcc70dc5	-0.024298558
205	0x3f2e82eb	0.68168515
206	0xbe6a8c6b	-0.22905128
207	0x3f15d226	0.58523786
208	0xbf4339a1	-0.7625981
209	0xbe28b5f6	-0.16475663
210	0xbf019d39	-0.5063053
211	0x3e7aa2ff	0.2447624
212	0xbf161dcd	-0.5863922
213	0xbe6f8636	-0.23391041
214	0x3edc877a	0.4307211
215	0x3f557964	0.8338835
216	0xbf2a807a	-0.6660229
217	0xbf283d68	-0.657187
218	0xbe959e2a	-0.29222232
219	0xbf103907	-0.56337017
220	0xbe5a77c1	-0.21334745
221	0xbef2cc78	-0.47421622
222	0xbdab3233	-0.08359184
223	0xbe1d6faf	-0.15374635
224	0x3e311c40	0.17295933
225	0xbd1f900c	-0.038955733
226	0x3eca8e83	0.39561853
227	0xbf290782	-0.6602708
228	0x3ed43fac	0.41454828
229	0xbedaf9cf	-0.42768714
230	0xbe9de5a4	-0.30839264
231	0x3ea3503b	0.31897148
232	0x3c9b1c5d	0.018934423
233	0x3ed64be8	0.41854787
234	0x3d63f4a8	0.055653244
235	0xbe141424	-0.14460808
236	0xbd4d5d91	-0.05013806
237	0x3c467354	0.012112457
238	0x3e57f78b	0.21090524
239	0xbdd4465d	-0.10364983
240	0x3ebbee7b	0.36705384
241	0x3e4f9082	0.20269969
242	0x3e10a06f	0.141237
243	0x3e5a2b17	0.213055
244	0x3e745401	0.2386017
245	0xbc4e68ca	-0.012598226
246	0x3ce42387	0.027848972
247	0xbcfc140d	-0.03077128
248	0x3e828854	0.25494635
249	0xbeb2551c	-0.34830558
250	0x3ee99612	0.45622307
251	0x3e18ff95	0.14941247
252	0xbdb5a297	-0.08868902
253	0xbe9894fa	-0.2980116
254	0x3ef98e00	0.4874115
255	0x3e837d00	0.25681305

d1.3.0.bias f4 [24]
0	0xbed7f0f8	-0.42176032
1	0x3f09e30d	0.53862077
2	0xbe5f2f4f	-0.2179539
3	0x3f634a06	0.88784826
4	0x3f399d0e	0.7250527
5	0xbed8b1ef	-0.42323253
6	0x3f86eca9	1.0540973
7	0xbef1cb53	-0.47225437
8	0xbf14b54d	-0.58089143
9	0xbf00f01b	-0.5036637
10	0xbe9cea07	-0.306473
11	0x3f34d77d	0.7064131
12	0x3f817cd4	1.011622
13	0xbe31b412	-0.17353848
14	0xbe8a56e5	-0.2701942
15	0xbeb4f9bf	-0.3534679
16	0xbf275b73	-0.65373915
17	0x3f7a7493	0.9783413
18	0x3eea94f6	0.45816773
19	0xbf151f35	-0.58250743
20	0x3e60a30c	0.21937197
21	0xbf03b7f5	-0.5145257
22	0x3f88bcc7	1.068261
23	0xbee1110e	-0.43958324

d1.4.weight f4 [4, 24]
0	0xbf95c54f	-1.1700839
1	0x3e8a34a0	0.26993275
2	0xbfac458b	-1.3458723
3	0x3f0955b0	0.53646374
4	0x3da3266e	0.07966314
5	0xbfbf5f87	-1.4951028
6	0x3f4fc659	0.8116203
7	0xbf993b12	-1.1971152
8	0xbfb9ff95	-1.4531122
9	0xbfae50ef	-1.3618449
10	0xbfa2fb3f	-1.2732924
11	0x3eeed800	0.4664917
12	0x3f692177	0.9106669
13	0xbf8695db	-1.0514482
14	0xbf93a023	-1.1533245
15	0xbf9a58de	-1.205837
16	0xbfabb55b	-1.341472
17	0x3ee9eef4	0.4569012
18	0x3f4a3915	0.7899335
19	0xbfb66bc9	-1.4251643
20	0xbeac8648	-0.33696198
21	0xbf9694f4	-1.1764207
22	0x3f2ba36b	0.6704623
23	0xbfbf7336	-1.4957035
24	0xbff316fa	-1.8991387
25	0x402e7a25	2.726205
26	0xbff8d618	-1.9440336
27	0x400198d8	2.0249538
28	0x4039e141	2.9043734
29	0xbff5dac0	-1.9207382
30	0x400981ff	2.1485593
31	0xc008a309	-2.1349509
32	0xbff3c263	-1.9043697
33	0xbff9716a	-1.9487736
34	0xbff4ad36	-1.911536
35	0x4018f5be	2.389999
36	0x40069bd7	2.1032617
37	0xbfeb1630	-1.8366146
38	0xc003f60b	-2.0618923
39	0xc00b7db4	-2.1795473
40	0xbff9bc86	-1.9510658
41	0x402cdfd5	2.7011616
42	0x402e2e33	2.7215698
43	0xc0050714	-2.078557
44	0x404ac09b	3.1680057
45	0xc0037f43	-2.0546424
46	0x402bc3c0	2.6838226
47	0xc00d2627	-2.2054536
48	0xbf4e4204	-0.8056948
49	0xbd71ae23	-0.05900396
50	0xbf2d7822	-0.67761433
51	0x3d55965e	0.052145354
52	0x3d2b26fe	0.041785233
53	0xbf157a14	-0.583894
54	0x3de59650	0.112103105
55	0xbf0a1915	-0.5394452
56	0xbf10b707	-0.5652928
57	0xbf21e152	-0.63234437
58	0xbf0261a4	-0.5093024
59	0x3da40734	0.080091864
60	0x3e2163d8	0.15760744
61	0xbf30846d	-0.68952066
62	0xbf257723	-0.64634913
63	0xbf498e74	-0.7873299
64	0xbf27386c	-0.6532047
65	0x3d62dec9	0.055388246
66	0xbe547ee7	-0.20751534
67	0xbf4c44e1	-0.797926
68	0xbcb9a143	-0.022659903
69	0xbf3c8a1a	-0.73648226
70	0x3e17bd36	0.14818272
71	0xbf0c926c	-0.5491092
72	0xbeeb915e	-0.46009344
73	0xbbd85fa2	-0.006603197
74	0xbf28163c	-0.65658927
75	0x3dd426b0	0.103589416
76	0x3ce0c23a	0.027436364
77	0xbf2807bb	-0.65636796
78	0x3c211f1b	0.009834076
79	0xbf0387b1	-0.51378924
80	0xbf18f596	-0.59749734
81	0xbf0a84b9	-0.5410877
82	0xbf08366b	-0.53208035
83	0x3df17ce9	0.11791403
84	0x3de455fd	0.111492135
85	0xbed32b5c	-0.41244018
86	0xbf237bc6	-0.6386074
87	0xbf03c08b	-0.5146567
88	0xbee501d4	-0.44727957
89	0x3d29aaea	0.041422762
90	0xbcd53788	-0.026027456
91	0xbee8f4ed	-0.45499364
92	0xbcbf4966	-0.023350429
93	0xbf21b729	-0.63170105
94	0xbdbd0801	-0.09230042
95	0xbf33758b	-0.7010123

d1.4.bias f4 [4]
0	0x3fa47c85	1.28505
1	0x40005002	2.0048833
2	0x3f11dfea	0.5698229
3	0x3f33f571	0.7029639

d2.0.weight f4 [10, 19]
0	0x3e2bf42c	0.16792363
1	0x3cade260	0.021226108
2	0xbe3c024f	-0.18360256
3	0x3d8251c2	0.0636325
4	0x3d9766bf	0.07392644
5	0x3dacd7e3	0.084396146
6	0x3d4bd5fd	0.049764622
7	0xbe2dc488	-0.16969502
8	0x3e594cea	0.21220747
9	0x3cb95385	0.022622833
10	0x3be9d469	0.007135917
11	0x3e3f38d1	0.18674017
12	0x3e509554	0.20369464
13	0xbe18096e	-0.14847347
14	0x3dac845f	0.08423685
15	0x3db2b68e	0.08726226
16	0xbeb40e23	-0.35167035
17	0x3d53ef8c	0.05174212
18	0xbef001ec	-0.46876466
19	0xbf05fa6f	-0.52335256
20	0x3f3b56a2	0.73179066
21	0xbe190582	-0.14943507
22	0x3d98095b	0.074236594
23	0x3e5fd015	0.21856721
24	0xbf214df8	-0.63009596
25	0xbe7d6d4a	-0.24748722
26	0x3dd1fb5e	0.102530226
27	0x3ead160b	0.3380588
28	0x3f1acaf3	0.60465926
29	0x3f2a928e	0.66629875
30	0x3e97ad88	0.2962458
31	0x3daf3508	0.08555037
32	0x3e119cba	0.14219943
33	0x3f1fe16c	0.6245334
34	0xbf262ee9	-0.6491533
35	0x3d23d72b	0.040000122
36	0x3d5c1538	0.053731173
37	0xbdcb6bfa	-0.09932704
38	0x3de8a151	0.11358894
39	0x3d84de08	0.064876616
40	0xbe11d6c5	-0.14242084
41	0x3de53e4b	0.11193522
42	0xbd4c956f	-0.0499472
43	0x3dade5bc	0.08491084
44	0x3e58cb63	0.21171336
45	0x3d8ab699	0.06773109
46	0x3a1e0ef8	0.0006029452
47	0xbce3168b	-0.02772071
48	0xbe234670	-0.15944839
49	0xbe09ddbd	-0.13463493
50	0x3e083076	0.13299736
51	0xbe14a068	-0.14514315
52	0x3e1b94e4	0.15193516
53	0xbdcc4277	-0.09973615
54	0x3e494432	0.1965492
55	0xbec8a4d9	-0.3918827
56	0xbe93be9e	-0.28856367
57	0xbee9006c	-0.45508134
58	0xbe34c141	-0.17651846
59	0xbe7f019e	-0.2490296
60	0xbee1689d	-0.44025126
61	0xbd666b79	-0.056254838
62	0x3de97253	0.11398759
63	0xbf12568e	-0.5716332
64	0x3eadb5bf	0.33927724
65	0xbcc9a959	-0.024616884
66	0xbd8fdc5b	-0.07024451
67	0xbd9c60a0	-0.07635617
68	0x3eb7d6ff	0.35906217
69	0x3f61ba20	0.8817463
70	0x3e333cdd	0.17503686
71	0xbe2965f0	-0.16542792
72	0x3e29e0c7	0.16589652
73	0x3cba5899	0.022747325
74	0xbe01ee62	-0.12688592
75	0xb936eb1b	-0.00017444456
76	0xbe34ec8a	-0.17668357
77	0xbe199e0d	-0.15001698
78	0xbe1ae589	-0.15126623
79	0xbe140501	-0.14455034
80	0xbd9d8894	-0.07692066
81	0xbdb74d94	-0.08950344
82	0xbd7feb2b	-0.062480133
83	0xbe320db6	-0.17388043
84	0x3cc2cc5f	0.023779092
85	0xbe2695e0	-0.1626811
86	0xbe1068ab	-0.14102428
87	0x3e151430	0.14558482
88	0xbbb3f206	-0.005491498
89	0xbdca5ca6	-0.098809525
90	0x3e6f28cd	0.23355408
91	0xbd536a8e	-0.05161529
92	0x3ef86e5d	0.485217
93	0x3e1d4a7e	0.15360448
94	0x3e88a8a7	0.26691172
95	0x3cb947a3	0.022617167
96	0x3cb9243a	0.022600282
97	0x3e1b27c0	0.15151882
98	0xbe5c87f7	-0.21536241
99	0x3d5703f2	0.052493997
100	0x3da7e77c	0.08198449
101	0xbdda6083	-0.106629394
102	0xbdd14e94	-0.10220066
103	0x3e08ee17	0.13372074
104	0xbe4874d5	-0.19575818
105	0x3d8bde0c	0.068294615
106	0xbe3b68e2	-0.18301728
107	0xbdec2cf0	-0.11532009
108	0xbe5835a0	-0.21114206
109	0x3e296195	0.16541131
110	0xbe76d2f1	-0.24103905
111	0x3d89cff5	0.06729118
112	0x3da54b6b	0.080710255
113	0x3e7074c5	0.23482044
114	0xbe75ae3f	-0.23992251
115	0xbe3fb73e	-0.18722245
116	0x3e56a7a6	0.2096239
117	0xbd933492	-0.07187761
118	0xbd73bb5a	-0.059504844
119	0xbe1ead7d	-0.15495868
120	0xbdde7bd1	-0.1086346
121	0xbe02a2fa	-0.12757483
122	0x3e17db88	0.14829838
123	0x3d31ecb9	0.043438647
124	0xbe72847d	-0.23683353
125	0x3d552eae	0.05204647
126	0x3ecd35a5	0.4007999
127	0xbd7aae08	-0.061201125
128	0xbe43d6c9	-0.19124903
129	0xbbb1f85f	-0.0054312195
130	0xbb962d37	-0.0045830267
131	0xbe7580d4	-0.23974925
132	0xbe5ac561	-0.21364357
133	0xbe19ece4	-0.15031773
134	0xbc0e2c17	-0.008677504
135	0x3db488d2	0.08815159
136	0x3ca399cf	0.019970803
137	0xbde04461	-0.10950542
138	0xbdfb0370	-0.12256515
139	0xbd602591	-0.054723326
140	0xbdc99862	-0.09843518
141	0x3dfd582b	0.12370332
142	0xbe6ada40	-0.22934818
143	0xbe0250f1	-0.12726189
144	0xbe2650db	-0.16241781
145	0xbda201f1	-0.079105265
146	0x3e530c33	0.20610122
147	0x3e20b114	0.1569255
148	0xbe2518fd	-0.16122814
149	0xbeaf97d2	-0.34295517
150	0x3e4cd839	0.20004357
151	0xbe53fc80	-0.2070179
152	0x3e300aff	0.17191695
153	0xbd225668	-0.039633185
154	0xbe256699	-0.16152419
155	0x3dd41389	0.103552885
156	0xbd8c9d1d	-0.068659045
157	0x3e481104	0.19537741
158	0xbdc4b111	-0.09604085
159	0x3dd5a2a5	0.104314126
160	0x3e2efa89	0.17087759
161	0x3e28ed07	0.16496669
162	0xbe6fb478	-0.23408687
163	0xbdfaa5d9	-0.12238664
164	0x3d26f5db	0.04076181
165	0xbdd1ca74	-0.10243693
166	0x3e589666	0.21151122
167	0xbba5ae76	-0.0050561978
168	0x3df1c9f4	0.118060976
169	0x3cc460c7	0.023971928
170	0xbe8a9ac4	-0.27071202
171	0xbe63fa3a	-0.22263423
172	0xbea3548a	-0.31900436
173	0xbebe2217	-0.37135383
174	0xbf0847af	-0.5323438
175	0xbdb91f55	-0.09039179
176	0x3de824d9	0.11335153
177	0xbef4bdd0	-0.47801065
178	0x3e52b1d2	0.20575646
179	0x3e8e80d1	0.27832654
180	0x3db5aec4	0.088712245
181	0xbe34c696	-0.1765388
182	0x3e8b527b	0.27211365
183	0x3f7e26c7	0.9927792
184	0x3ecb1ab0	0.39668798
185	0xbe43fbbe	-0.19139001
186	0x3e2b6d8a	0.16741005
187	0x38f1bd78	0.00011527067
188	0x3da58c9f	0.08083462
189	0x3d12a6bb	0.035803538

d2.0.bias f4 [10]
0	0x3eada3f7	0.33914158
1	0xbea66e70	-0.32506132
2	0xbd1e82c0	-0.03869891
3	0x3e95f863	0.29291067
4	0xbd82ec82	-0.063927665
5	0x3e68da07	0.22739421
6	0x3a769160	0.0009405818
7	0x3da4446d	0.08020864
8	0xbd66846c	-0.05627863
9	0x3beae291	0.007168122

d2.2.0.weight f4 [18, 10]
0	0x3e2eed81	0.17082788
1	0x3e598762	0.2124305
2	0xbc22cd20	-0.009936601
3	0xbe1cfbe1	-0.15330459
4	0xbeec9a02	-0.4621125
5	0xbe8814bf	-0.26578328
6	0xbd4e648e	-0.050388865
7	0x3ea6d431	0.32583764
8	0xbda8427e	-0.082158074
9	0x3e46f423	0.19429068
10	0x3d566eb5	0.052351672
11	0xbb44c01b	-0.003002173
12	0xbeba0c71	-0.36337617
13	0xbd5b8f67	-0.053603556
14	0x3da6ff67	0.08154183
15	0x3dbae99c	0.09126589
16	0xbe56328b	-0.20917718
17	0x3e26bc34	0.16282731
18	0x3ddc3458	0.10752171
19	0xbf1dd2c3	-0.6164972
20	0x3dba31d7	0.090915374
21	0x3edbce53	0.4293085
22	0xbe5a8813	-0.2134097
23	0x3da41580	0.08011913
24	0x3d5d2a5c	0.053995475
25	0x3e02411c	0.1272015
26	0x3e81921a	0.2530678
27	0x3e9e93b0	0.30972052
28	0x3e13912c	0.14410847
29	0xbce0c913	-0.02743963
30	0x3e07ff34	0.13280946
31	0xbf1a3629	-0.6023889
32	0xbe91d453	-0.28482303
33	0xbd226e4f	-0.03965598
34	0xbd6c5a79	-0.05770347
35	0x3df0202a	0.11724885
36	0x3ea0f6e3	0.3143836
37	0x3df2e392	0.11859812
38	0x3db1a75e	0.08674501
39	0xbe3c3045	-0.18377788
40	0xbdd24e70	-0.10268867
41	0x3dd47b46	0.10375075
42	0x3e075961	0.13217689
43	0x3de5bf31	0.112181075
44	0xbdda7566	-0.10666923
45	0x3bcb6827	0.0062074843
46	0x3dc359b9	0.095385976
47	0xbd8a1cef	-0.067438
48	0xbe19671b	-0.14980738
49	0x3e0a7f11	0.13525034
50	0x3e9c5717	0.30535194
51	0xbe54036f	-0.20704435
52	0xbe31eafc	-0.17374796
53	0xbe2663fa	-0.16249076
54	0xbe5dc755	-0.2165807
55	0x3d70a710	0.058753073
56	0xbe06d47d	-0.13166995
57	0x3e8de08a	0.27710372
58	0xbe323ac1	-0.17405225
59	0xbdf06758	-0.11738461
60	0x3dd70662	0.10499264
61	0x3ea98ee2	0.33116823
62	0x3d25c85d	0.040474284
63	0x3db3128e	0.087437734
64	0x3da62300	0.081121445
65	0xbd84e7fb	-0.06489559
66	0xbdebc6a6	-0.115124986
67	0xbe1349dd	-0.14383645
68	0xbd642c02	-0.05570603
69	0x3e97b96e	0.2963366
70	0x3da8185c	0.08207771
71	0x3e56348b	0.20918481
72	0xbcc02a10	-0.023457557
73	0x3e0aa65b	0.13540022
74	0x3ba39681	0.0049923067
75	0xbe270891	-0.16311862
76	0xbd61ecd4	-0.055157498
77	0x3e30b6bc	0.17257208
78	0x3d9c460e	0.07630549
79	0x3cb7d786	0.022441637
80	0xbef8e750	-0.48613977
81	0x3b8415da	0.004030925
82	0xbd98a723	-0.07453754
83	0xbe69c6ec	-0.22829789
84	0x3ebce220	0.3689127
85	0xbe77fd8f	-0.24217819
86	0x3d685299	0.056719396
87	0xbed8e43c	-0.4236163
88	0xbe443b63	-0.19163279
89	0xbdb71a6d	-0.08940587
90	0xbb1ab5f4	-0.0023606988
91	0x3da7d71a	0.08195324
92	0x3d823f03	0.06359675
93	0xbe7c5c5d	-0.24644609
94	0xbe31645b	-0.17323439
95	0xbd49faf1	-0.049311582
96	0x3d463996	0.048394762
97	0x3dbd0ffc	0.092315644
98	0xbe0d2e75	-0.13787253
99	0xbed341c8	-0.41261125
100	0x3ccf27dc	0.025287561
101	0x3e9407e9	0.28912285
102	0x3dc33074	0.09530726
103	0xbe184a8e	-0.1487219
104	0xbd98c1b1	-0.07458819
105	0x3e54a67a	0.20766631
106	0x3d5c6086	0.05380299
107	0x3da8b40d	0.08237467
108	0x3e32fd90	0.17479539
109	0xbe866bd6	-0.26254147
110	0x3e95cc3b	0.29257378
111	0xbca4f4bc	-0.02013623
112	0x3ceb596a	0.02872916
113	0xbdc2b66a	-0.09507449
114	0x3e594c5b	0.21220534
115	0xbee43ba3	-0.4457675
116	0xbe3fdd6c	-0.1873681
117	0xbdc10b3c	-0.09425971
118	0xbcc6ebb0	-0.024282306
119	0xbb267919	-0.002540177
120	0x3e3f610b	0.18689363
121	0x3cfa6a50	0.030568272
122	0x3e7880c0	0.24267864
123	0x3e17b650	0.1481564
124	0x3cfe7613	0.031062162
125	0x3e7a48a9	0.2444178
126	0x3d20afbb	0.03923009
127	0xbe49b36f	-0.19697355
128	0x3e99c58f	0.30033538
129	0xbce8d2f9	-0.028420912
130	0x3e57da7f	0.21079443
131	0xbe4a5227	-0.19757901
132	0xbdbe33c0	-0.09287214
133	0xbbf9e7e5	-0.007626521
134	0x3cfade83	0.03062368
135	0x3ddb43c0	0.10706282
136	0x3d09beec	0.033629343
137	0x3d33c91e	0.043892972
138	0x3de83812	0.113388196
139	0x3e59029a	0.21192399
140	0x3e3c9560	0.18416357
141	0xbde18f47	-0.11013656
142	0xbda574a1	-0.08078886
143	0x3df13490	0.117776036
144	0x3d7d9ff8	0.061920136
145	0xbdc1d17e	-0.094637856
146	0xbe3434fc	-0.17598337
147	0xbdb6ca13	-0.08925261
148	0x3ddafd0b	0.10692795
149	0xbe822bf8	-0.2542417
150	0x3e0890aa	0.13336435
151	0xbca92d7c	-0.020651571
152	0x3e522cdb	0.20524924
153	0x3e5ed453	0.21760683
154	0xbc9887a5	-0.018619368
155	0x3d909dbc	0.070613354
156	0xbe2921f7	-0.16516863
157	0x3b70fb04	0.003677071
158	0xbe5029a5	-0.20328386
159	0x3d388741	0.045050863
160	0xbe48f80b	-0.19625871
161	0xbeb55392	-0.35415322
162	0x3e442116	0.19153246
163	0xbdf9989c	-0.12187311
164	0xbe053ed5	-0.1301225
165	0x3e6078ad	0.21921034
166	0xbe061358	-0.13093317
167	0x3db229d8	0.08699387
168	0xbd1af813	-0.03783424
169	0x3d6daf3a	0.058028437
170	0xbd88544e	-0.06656705
171	0x3f0045d3	0.50106543
172	0x3e32a105	0.17444237
173	0x3e84d04e	0.25940174
174	0xbc5b5f03	-0.013389352
175	0x3e32e588	0.17470372
176	0xbe46f1f3	-0.19428234
177	0xbe59394d	-0.21213265
178	0xbd9a937e	-0.07547663
179	0xbc0d86c8	-0.008638091

d2.2.0.bias f4 [18]
0	0xbee1e6a1	-0.44121268
1	0xbe66a3d4	-0.22523433
2	0xbe69ed10	-0.22844338
3	0xbe3623f1	-0.17787148
4	0xbce01148	-0.02735199
5	0x3ece4aaf	0.40291354
6	0x3de88b43	0.11354687
7	0xbdf018f3	-0.11723509
8	0xbee6c82d	-0.45074597
9	0xbe4488f7	-0.19192873
10	0x3e5383c5	0.20655735
11	0x3d6faca9	0.05851427
12	0xbe057b78	-0.13035381
13	0xbd4ea8d1	-0.050453965
14	0xbe2c39f3	-0.16818981
15	0xbdf7d8e5	-0.12101916
16	0xbebf8d28	-0.3741238
17	0xbec0531d	-0.3756341

d2.3.0.weight f4 [16, 18]
0	0x3eace663	0.3376952
1	0xbc447307	-0.011990315
2	0x3daefb47	0.08544021
3	0x3c73e3d2	0.01488586
4	0xbdbb66b2	-0.09150447
5	0xbd84b24b	-0.06479319
6	0x3dc38766	0.095473096
7	0xbd69deb5	-0.057097156
8	0x3ddbd656	0.10734241
9	0x3e517740	0.20455647
10	0xbe57550e	-0.2102854
11	0x3dea55d0	0.11442149
12	0x3db656ee	0.08903299
13	0x3d845c5d	0.064629294
14	0xbd3d615e	-0.046235435
15	0x3e1b6b96	0.1517776
16	0xbe34ca7d	-0.17655368
17	0x3e0de272	0.13855913
18	0xbd952dbd	-0.072841145
19	0xbdb873b3	-0.09006443
20	0x3dd73f2d	0.10510097
21	0xbda2b02a	-0.07943757
22	0x3dec7f30	0.115476966
23	0xbe0e8f80	-0.13921928
24	0xbe1ee819	-0.15518226
25	0xbc835f88	-0.016036764
26	0xbe2d47fa	-0.16921988
27	0x3dc7fb8c	0.09764776
28	0x3d5afbd0	0.053462803
29	0x3e287d09	0.16453947
30	0xbe040b02	-0.12894824
31	0x3db8c093	0.090211056
32	0x3db00ed4	0.08596578
33	0x3e3afac1	0.18259718
34	0x3e4b636f	0.1986215
35	0xbcfead52	-0.031088505
36	0xbf3564d5	-0.7085698
37	0xbe7bd150	-0.24591565
38	0x3e1f4d44	0.15556818
39	0xbeaf47ff	-0.34234616
40	0x3b203b11	0.0024449269
41	0x3ea80a7f	0.32820508
42	0x3ea4c11b	0.32178578
43	0x3d3452d6	0.04402431
44	0xbf12603c	-0.5717809
45	0xbdef4a78	-0.11684126
46	0x3ef6b49c	0.4818467
47	0x3d9e0b96	0.077170536
48	0xbd68e4b9	-0.056858752
49	0xbde635e8	-0.112407506
50	0xbe9f29e8	-0.3108666
51	0x3e505e8b	0.20348565
52	0xbed4662f	-0.4148421
53	0x3b46bdcc	0.003032553
54	0xbe137174	-0.14398748
55	0xbe3f743f	-0.18696688
56	0x3d15e273	0.036592912
57	0x3d324442	0.043522127
58	0xbda054e5	-0.07828692
59	0x3dc85d20	0.09783387
60	0x3d808191	0.06274713
61	0x3ddeadc4	0.10872987
62	0xbda7e99d	-0.08198855
63	0x3d9cc023	0.07653835
64	0xbe0f7591	-0.14009692
65	0xbd940132	-0.072267905
66	0x3d885594	0.06656948
67	0x3cf5866b	0.029971322
68	0x3e08ae83	0.13347821
69	0x3c86fd71	0.016478272
70	0x3e74aa82	0.23893169
71	0x3dde2fe1	0.10848976
72	0xbdeeefc1	-0.11666823
73	0xbd5590da	-0.052140094
74	0xbdb8e52b	-0.09028085
75	0xbe158373	-0.14600925
76	0xbe0a27d2	-0.13491753
77	0xbd337d8c	-0.043820903
78	0x3e358a77	0.17728601
79	0x3d2ebd7f	0.042661186
80	0xbe83d443	-0.2574788
81	0x3d93dfd4	0.07220426
82	0x3e3589b4	0.17728311
83	0xbd36e358	-0.044650406
84	0xbdb8d74b	-0.09025439
85	0x3db14430	0.08655584
86	0x3dc01c42	0.0938039
87	0xbe078b7f	-0.13236807
88	0xbe264e27	-0.1624075
89	0xbd14d240	-0.036333323
90	0xbdaea4d7	-0.085275345
91	0x3ea10541	0.3144932
92	0xbe756a6b	-0.23966376
93	0x3e980e84	0.29698575
94	0xbe8073dd	-0.25088397
95	0x3e0400b3	0.12890892
96	0xbe9353ba	-0.28774816
97	0xbcf6426c	-0.03006097
98	0x3e1bec2b	0.1522681
99	0x3e8d0810	0.27545214
100	0x3a43547c	0.0007451249
101	0x3e31575d	0.17318483
102	0xbdd4d7e6	-0.10392742
103	0x3d001192	0.031266756
104	0x3e399173	0.1812189
105	0xbda29c2f	-0.07939946
106	0x3e5e237f	0.21693228
107	0xbe76892a	-0.24075761
108	0xbe9e7f76	-0.3095662
109	0x3bd83680	0.006598294
110	0x3af05b10	0.0018337686
111	0xbdd2d9bc	-0.10295436
112	0xbcbb7cdb	-0.022886684
113	0x3e871b8a	0.26388198
114	0x3e10d756	0.14144644
115	0xbd45a162	-0.04824961
116	0xbc544dba	-0.012957985
117	0xbe0a4823	-0.1350408
118	0xba9cff1d	-0.0011977885
119	0xbd576be4	-0.052593127
120	0xbdb1aa56	-0.08675067
121	0x3da56e7e	0.08077715
122	0x3dc2cdbb	0.09511896
123	0xbdea4c68	-0.114403546
124	0xbdd27495	-0.102761425
125	0x3da07fd2	0.0783688
126	0xbdd07d7b	-0.101801835
127	0xbde8ae71	-0.11361397
128	0xbe4b46ba	-0.19851199
129	0xbe13472e	-0.14382622
130	0x3cd2126b	0.025643548
131	0xbe37936c	-0.1792733
132	0xbdfe92d4	-0.12430349
133	0x3e7a85d5	0.24465115
134	0xbe0749e9	-0.13211788
135	0xbde94f18	-0.11392039
136	0xbdd42526	-0.10358648
137	0x3cf28176	0.029602747
138	0xbd9bdb7d	-0.076102234
139	0x3d43fe6f	0.04785007
140	0x3d681dbd	0.056668986
141	0xbc13cb6e	-0.009020669
142	0x3d0ea65c	0.03482662
143	0xbe8c8438	-0.27444625
144	0xbc668162	-0.014068933
145	0x3d896912	0.06709494
146	0xbdb498d3	-0.088182114
147	0xbe905b73	-0.2819477
148	0xbd0f077d	-0.03491925
149	0x3e237fb1	0.15966679
150	0xbd88017b	-0.066409074
151	0x3dd4487a	0.10365386
152	0x3cc70a67	0.024296952
153	0xbe34f0d1	-0.17669989
154	0x3c495d48	0.012290306
155	0x3e33d1d2	0.17560509
156	0x3e14f730	0.1454742
157	0xbe461e45	-0.19347484
158	0xbcfb3bd0	-0.03066817
159	0x3db69a9c	0.08916208
160	0x3c1a4d65	0.009417866
161	0xbe62792b	-0.22116534
162	0x3deaa7f2	0.11457814
163	0x3e04bbe0	0.12962294
164	0xbc8a1d32	-0.016859625
165	0xbd7e0af7	-0.062022176
166	0x3d9fdecc	0.07806167
167	0xbd375bed	-0.0447654
168	0x3e00e3ea	0.12586942
169	0xbde8bcd0	-0.11364138
170	0x3bb1aef1	0.005422466
171	0xbce4c678	-0.027926669
172	0xbb6bf382	-0.0036003296
173	0xbd147174	-0.03624101
174	0x3ddf1308	0.10892302
175	0xbe2ce017	-0.16882358
176	0x3e005561	0.1253257
177	0x3dadf527	0.08494025
178	0xbca12b68	-0.019674018
179	0xbdfef008	-0.12448126
180	0x3bd7deaf	0.0065878252
181	0xbd385d5b	-0.045010906
182	0xbe6e2f3b	-0.23260204
183	0xbe374012	-0.17895535
184	0x3de26c24	0.110557824
185	0x3e41f946	0.18942747
186	0x3d72fde8	0.059324175
187	0x3e2c438d	0.16822644
188	0x3dc4979f	0.09599232
189	0x3e28700f	0.16448997
190	0x3db60b03	0.08888819
191	0xbd8787bc	-0.06617686
192	0xbc48f2bf	-0.012264906
193	0x3da5402a	0.08068879
194	0xbd778503	-0.060429584
195	0xbe2b9286	-0.16755113
196	0xbe302cc6	-0.1720458
197	0x3ce2c728	0.027682856
198	0x3dd26584	0.10273269
199	0x3e2b68ab	0.16739146
200	0xbc6b7eb6	-0.014373472
201	0x3dd2b46a	0.102883175
202	0xbdabe3a6	-0.0839303
203	0xbe4e47be	-0.20144555
204	0xbe1b79dd	-0.15183206
205	0x3e01db44	0.126813
206	0xbd17ef07	-0.03709319
207	0xbe056761	-0.13027717
208	0x3daedbc4	0.08538011
209	0xbc939d80	-0.018019438
210	0xbe31d9a9	-0.17368187
211	0x3dc7083b	0.09718367
212	0x3d81e77c	0.0634298
213	0xbe0e1e27	-0.1387869
214	0xbe06e6a4	-0.1317392
215	0x3e0f7e73	0.1401308
216	0x3f1b7eab	0.60740155
217	0x3ddcd587	0.107829146
218	0x3e51489a	0.20437852
219	0x3e501ed6	0.20324263
220	0x3e1550fc	0.14581674
221	0xbeb36853	-0.3504053
222	0xbe2e20f1	-0.17004754
223	0x3e62cf05	0.22149284
224	0x3ea36a70	0.31917143
225	0x3e666273	0.22498493
226	0x3c818cbe	0.015814181
227	0xbe16cb13	-0.14725904
228	0x3e222703	0.15835194
229	0x3dfecac6	0.1244102
230	0x3e379dfe	0.17931363
231	0x3e82775e	0.25481695
232	0x3e03f8b8	0.12887847
233	0x3e0f7578	0.14009655
234	0x3e80152a	0.25016147
235	0x3d9e5491	0.077309735
236	0x3e35081e	0.17678878
237	0x3dc06f7a	0.093962625
238	0xbc8faebf	-0.01753938
239	0xbea50ed5	-0.32237878
240	0xbd9eab15	-0.07747475
241	0xbde8e822	-0.11372401
242	0x3e92cb07	0.28670523
243	0x3b779e03	0.0037783391
244	0xbe764594	-0.2404998
245	0xbc2e55ce	-0.010640575
246	0xbe1118bc	-0.14169592
247	0xbe99c2c0	-0.30031395
248	0x3d712f76	0.058883153
249	0x3c241deb	0.010016899
250	0x3d9e6de1	0.077358015
251	0x3ee59932	0.4484344
252	0xbd1d8026	-0.03845229
253	0x3c6e54b1	0.014546559
254	0xbe81cf8d	-0.2535366
255	0x3e34cb4e	0.1765568

d2.3.0.bias f4 [16]
0	0xbeb2bc71	-0.34909394
1	0x3c9fc26d	0.01950189
2	0x3ead6288	0.33864236
3	0xbdaee890	-0.085404515
4	0x3f028947	0.5099072
5	0x3dff79f1	0.1247443
6	0x3ee8f55f	0.45499703
7	0x3e286100	0.16443253
8	0x3e28ced4	0.16485149
9	0x3e230b46	0.15922269
10	0xbd5b2818	-0.053505033
11	0x3e94a97d	0.2903556
12	0xbe90547e	-0.28189462
13	0xbec6c7ca	-0.38824302
14	0x3e9263d6	0.28591794
15	0xbdf10743	-0.11768963

d2.4.weight f4 [3, 16]
0	0xbb1fd9f6	-0.002439139
1	0xbadf423a	-0.0017033287
2	0x3a01ce29	0.000495168
3	0x3b04eda7	0.0020283253
4	0xba01cb2a	-0.0004951233
5	0x3de9836a	0.11402018
6	0x39821d22	0.00024817238
7	0x3c608aad	0.013704938
8	0xba824205	-0.0009937888
9	0xbb5dcbb2	-0.0033843336
10	0xbb2f0630	-0.002670657
11	0xbb8068fe	-0.003918766
12	0xbb8ad04f	-0.004236258
13	0xbb2117f9	-0.002458094
14	0x3c1ee409	0.0096979225
15	0xbcdc428f	-0.026887206
16	0xc107f695	-8.497701
17	0xc0a6e74e	-5.2157354
18	0x413f0120	11.937775
19	0xc0b89171	-5.767754
20	0x4127260c	10.446789
21	0xbfa03c81	-1.2518464
22	0x4113f4eb	9.247294
23	0x412e2641	10.884339
24	0x40f34625	7.6023126
25	0x40b4f5f1	5.655022
26	0x40d91de0	6.784897
27	0x40fba64a	7.864049
28	0xc12490c5	-10.285344
29	0xc10b24e9	-8.696511
30	0x40f46edb	7.638532
31	0xc1244fed	-10.269513
32	0xbd9d2f07	-0.076749854
33	0x3c9245a1	0.017855467
34	0xbcbccbdd	-0.023046428
35	0x3c13ea66	0.009028053
36	0x3c26da8d	0.0101839425
37	0x3d30f1f4	0.043199494
38	0x3ceb63d7	0.02873413
39	0x3e146fe7	0.14495812
40	0x3ca8c688	0.02060248
41	0xbbc385cf	-0.005966879
42	0xbd2a0aba	-0.041514136
43	0x3b481ede	0.0030535976
44	0xbd58ed7e	-0.052960865
45	0xbe1844aa	-0.14869943
46	0x3e3b9daf	0.1832187
47	0xbe03de5d	-0.12877794

d2.4.bias f4 [3]
0	0x3dc1be44	0.094601184
1	0x4104210d	8.258069
2	0x3e1afd3b	0.15135662

d3.0.weight f4 [4, 19]
0	0xbe2c17bf	-0.16805933
1	0x3b6237be	0.0034518088
2	0x3d67387a	0.056450345
3	0x3d580275	0.05273672
4	0xbc8e1df9	-0.017348276
5	0xbd97fe6a	-0.074215725
6	0xbda9b447	-0.08286338
7	0xbdc3a705	-0.09553341
8	0xbdca77cd	-0.098861314
9	0x3d9cb622	0.076519266
10	0x3caed839	0.021343337
11	0x3ca45c78	0.020063624
12	0xbc28c67a	-0.010301227
13	0xbc7145e0	-0.014726132
14	0xbd8f607e	-0.07000826
15	0xbd5f4c16	-0.05451592
16	0x3ca005ba	0.01953398
17	0xbe167a2d	-0.14695044
18	0xbde23ce8	-0.11046773
19	0xbeac7d69	-0.3368943
20	0x3eb12543	0.3459874
21	0xbde5f38f	-0.11228096
22	0xbeb6b01f	-0.35681245
23	0x3f105c78	0.56391096
24	0xbe248a40	-0.16068363
25	0xbe10f2f9	-0.14155187
26	0x3e3b47a3	0.18289046
27	0x3e5a18dc	0.21298546
28	0x3e86c3e1	0.2632132
29	0x3e1e7737	0.15475164
30	0x3eab0341	0.3340092
31	0xbe2461e5	-0.16052969
32	0x3ec19d6a	0.3781541
33	0x3e3751a1	0.17902233
34	0xbecb3a59	-0.39692953
35	0xbe098d19	-0.1343273
36	0x3dcaa949	0.0989557
37	0x3e122ad9	0.14274158
38	0x3e012bd0	0.1261437
39	0x3dec3bf0	0.1153487
40	0xbd91d6f4	-0.07121077
41	0x3e02f7e3	0.12789874
42	0x3e273fa3	0.16332869
43	0x3d264b4f	0.040599164
44	0xbe328109	-0.17432036
45	0xbe6603a2	-0.22462323
46	0x3da2830d	0.07935152
47	0xbda8f55f	-0.08249926
48	0x3e0ec95e	0.13944003
49	0x3df80c1c	0.12111685
50	0xbdd6214f	-0.10455572
51	0x3c796cc4	0.015223686
52	0xbd0de8a2	-0.034645684
53	0x3daaccba	0.0833983
54	0x3f8d7ba0	1.1053352
55	0xbe4c19aa	-0.19931665
56	0xbeb7752d	-0.35831586
57	0x3db3a93f	0.087725155
58	0xbdc5e261	-0.09662319
59	0xbe069af6	-0.1314505
60	0x3ccf8a77	0.02533458
61	0xbe6062a8	-0.21912634
62	0x3e356d9e	0.17717597
63	0xbdeada76	-0.11467449
64	0xbde7c969	-0.11317713
65	0xbe0888cc	-0.13333434
66	0x3dcfa5be	0.10139035
67	0xbe9f5c16	-0.31124943
68	0x3d953810	0.07286084
69	0x3ef4fb7c	0.47848117
70	0x3e0d2758	0.1378454
71	0xbd0b14a6	-0.03395524
72	0x3e57ea79	0.21085538
73	0xbe894fe2	-0.26818758
74	0xbea5e4cf	-0.3240113
75	0x3cf8604f	0.030319361

d3.0.bias f4 [4]
0	0xbf491e3c	-0.7856176
1	0x3c0dc300	0.008652449
2	0x3e73dd1d	0.23814817
3	0x3e777991	0.24167468

d3.2.0.weight f4 [25, 4]
0	0xbf4bf929	-0.79677063
1	0xbfa7ea29	-1.3118335
2	0xbe93b2f9	-0.28847483
3	0x3d5784b1	0.05261678
4	0x3f5608e9	0.83607346
5	0xbf0145fe	-0.50497425
6	0xbe0bd949	-0.13657106
7	0xbee770c3	-0.45203218
8	0xbf8b609d	-1.0888859
9	0xbe8447dc	-0.25836074
10	0x3db830e5	0.08993701
11	0x3de83c1a	0.113395885
12	0xbfa766f3	-1.3078293
13	0x3f24e8e9	0.6441789
14	0x3f95b43b	1.1695627
15	0x3d22cf67	0.039748576
16	0xbec1b919	-0.3783653
17	0xbeb46214	-0.35231078
18	0xbdb7a7b0	-0.08967531
19	0xbe8c98ad	-0.27460232
20	0x3f8060e9	1.0029575
21	0x3f3b128a	0.73075163
22	0xbea2c3a8	-0.317899
23	0xbe9b120c	-0.30287206
24	0xbf27c512	-0.6553508
25	0x3f39631a	0.7241684
26	0x3e169846	0.14706525
27	0x3e104f74	0.14092809
28	0x3e07e077	0.1326922
29	0xbe6623ba	-0.22474566
30	0xbe7d652e	-0.24745628
31	0x3ed23eb3	0.4106346
32	0x3edd2250	0.4319024
33	0xbda7232a	-0.08161004
34	0xbe165f74	-0.1468485
35	0xbe40caf1	-0.18827416
36	0xbcd0a0ac	-0.02546724
37	0xbef78ad7	-0.48348114
38	0x3f105fe6	0.5639633
39	0x3f8daaf5	1.1067797
40	0xbc7254fb	-0.014790769
41	0xbe648329	-0.22315659
42	0xbec8c25d	-0.39210787
43	0x3d8fd2e3	0.07022645
44	0xbe34a777	-0.17642008
45	0x3de4c947	0.11171203
46	0x3e90d90b	0.2829059
47	0x3eb6b520	0.35685062
48	0xbf60b636	-0.8777803
49	0xbf31e162	-0.6948453
50	0xbe786ba6	-0.24259815
51	0xbe83145a	-0.25601465
52	0xbf9533d2	-1.1656439
53	0xbded7149	-0.11593873
54	0xbe6be771	-0.23037507
55	0xbe85479f	-0.26031205
56	0xbf4aa0c9	-0.7915159
57	0xbda56abf	-0.08077001
58	0xbed87dd4	-0.422835
59	0xbf5f6174	-0.87258077
60	0x3e84e8d0	0.25958872
61	0xbd7e79dd	-0.062127937
62	0xbe8876ef	-0.2665324
63	0xbd3c3412	-0.045948096
64	0x3ec90287	0.3925974
65	0xbe6d5dff	-0.23180388
66	0xbe4ab9ca	-0.19797435
67	0x3e052d96	0.13005671
68	0x3f6e7cbd	0.93159086
69	0x3ce22430	0.027605146
70	0xbe74f3f4	-0.23921186
71	0xbeb469c0	-0.3523693
72	0xbf433a66	-0.76260984
73	0xbe40874a	-0.18801609
74	0xbc83b014	-0.016075172
75	0x3e839b01	0.25704196
76	0x3f0e5abe	0.5560721
77	0xbd49faad	-0.04931133
78	0xbe0828ee	-0.13296863
79	0xbec2b2d8	-0.38027072
80	0x3edc3f1b	0.43016896
81	0xbe77c250	-0.24195218
82	0xbec8fe8f	-0.39256713
83	0xbe4abb55	-0.19798024
84	0xbf5ae44f	-0.8550462
85	0xbf80a586	-1.0050514
86	0xbd6fe6bc	-0.058569655
87	0x3d34099f	0.043954488
88	0xbf992656	-1.1964824
89	0x3f207222	0.6267415
90	0xbce834e1	-0.028345527
91	0x3e5f095f	0.21780919
92	0x3d209006	0.03919985
93	0xbeb54141	-0.35401347
94	0xbe967bd4	-0.29391348
95	0x3dbcfcf4	0.092279345
96	0xbe8457d0	-0.25848246
97	0xbe0735f4	-0.13204175
98	0xbe81bbae	-0.253385
99	0xbda2fe6c	-0.07958683

d3.2.0.bias f4 [25]
0	0x3f78aebe	0.97141635
1	0xbf2232f6	-0.6335901
2	0x3f8f2659	1.1183578
3	0x3f9931ff	1.1968383
4	0x3f854706	1.04123
5	0xbf7d6d26	-0.9899467
6	0x3f878618	1.0587797
7	0xbf8ec165	-1.1152769
8	0xbf837515	-1.0270106
9	0x3f3b0bd7	0.7306494
10	0x3f73af1a	0.9518906
11	0x3f735fc8	0.95068026
12	0x3f4382cf	0.76371473
13	0x3f93ed56	1.1556804
14	0x3f511a09	0.8168035
15	0xbf9aac3c	-1.2083812
16	0xbf91e9ef	-1.1399516
17	0xbf73a138	-0.95167875
18	0x3f3e66bf	0.7437553
19	0xbf7e6ffc	-0.99389625
20	0xbf3c4bff	-0.7355346
21	0x3f390dd0	0.722867
22	0x3f929bf9	1.1453849
23	0x3f341f1e	0.7035998
24	0x3fa2e10b	1.2724928
